Approximate Bayesian Computation/model_rev.pt (torch, 125263 bytes, 8 tensors)

weight f4 [100, 100]
0	0x3d1027c6	0.03519418
1	0xbd3f0661	-0.046636943
2	0x3d56920c	0.052385375
3	0xbd3271f2	-0.043565698
4	0x3cdcc127	0.026947571
5	0xbbd6e3ae	-0.0065579033
6	0xbc80d8a4	-0.015728302
7	0x3cf15a46	0.029461991
8	0xbd159f05	-0.036528606
9	0x3d11c434	0.035587505
10	0xbcc7e4c1	-0.02440107
11	0x3c81fe52	0.01586834
12	0xbb762e43	-0.0037564195
13	0x3a6991c6	0.00089099666
14	0x3bb49686	0.005511108
15	0xbb1d81e5	-0.0024033722
16	0x3bd524d1	0.006504633
17	0xbbd42875	-0.0064745494
18	0x3c00654c	0.007836651
19	0xbc0bf226	-0.008541619
20	0x3c299542	0.010350527
21	0xbb3a4009	-0.0028419516
22	0xbba635d5	-0.0050723352
23	0x3c99ef86	0.018790971
24	0xbcf961df	-0.030442176
25	0x3d2d8ee7	0.04237261
26	0xbd5a3dd4	-0.05328162
27	0x3d6c03b9	0.057620738
28	0xbd5e4504	-0.054265037
29	0x3d28940e	0.04115682
30	0xbca8300a	-0.02053072
31	0xbc084e14	-0.0083193965
32	0x3d0b9262	0.03407515
33	0xbd6f8149	-0.058472905
34	0x3d93cadc	0.07216427
35	0xbd9597b4	-0.07304326
36	0x3d7b64bd	0.06137537
37	0xbd015a85	-0.031580467
38	0x3b9b5587	0.0047404203
39	0x3cd33bd1	0.025785359
40	0xbd327956	-0.043572746
41	0x3d4a5be8	0.049404055
42	0xbd2f3bf5	-0.04278179
43	0x3d04ecc1	0.03245235
44	0xbc7cfa17	-0.015440485
45	0x3b8dfd85	0.0043332004
46	0x3c0e5c41	0.008688987
47	0xbc235823	-0.009969744
48	0x3c29b85e	0.010358898
49	0xba43d459	-0.0007470302
50	0xbbfa465e	-0.007637783
51	0x3c0c0fa8	0.008548655
52	0xbc5bede3	-0.013423416
53	0x3bcb5e95	0.0062063434
54	0xbb47f7a2	-0.003051259
55	0xbbfc5725	-0.007700818
56	0x3c75662c	0.014977973
57	0xbc65451a	-0.013993526
58	0x3bd8398e	0.006598658
59	0x3bca4dad	0.0061738105
60	0xbc97977d	-0.018504852
61	0x3cf4c0bb	0.029877057
62	0xbd08afb3	-0.033370685
63	0x3d0759f9	0.03304479
64	0xbcc51dc1	-0.02406204
65	0x3c51cba8	0.012804903
66	0x3b4527f5	0.003008363
67	0xbcb074ea	-0.021540124
68	0x3d1f343c	0.038868174
69	0xbd43997d	-0.0477538
70	0x3d4cd1c7	0.050004747
71	0xbd238052	-0.039917298
72	0x3cef9768	0.029247
73	0xbc85f6fc	-0.016353123
74	0x3c55f08f	0.013057842
75	0xbaeeee5c	-0.0018228996
76	0x3b158512	0.0022814912
77	0x3a7d8b9b	0.0009671987
78	0xbb127d1c	-0.0022352403
79	0x39be0ce0	0.00036249217
80	0xbaf8dd0e	-0.0018986778
81	0xbbbd8b0e	-0.005784399
82	0x3c177ff3	0.009246814
83	0xbca18874	-0.019718386
84	0x3cc46a26	0.023976397
85	0xbcfa14d5	-0.030527512
86	0x3cfdba74	0.030972697
87	0xbd049120	-0.032364964
88	0x3cb35d65	0.02189512
89	0xbc95dc62	-0.018293563
90	0x3bc991bf	0.0061514075
91	0x3b97ee8e	0.004636592
92	0xbcae141a	-0.02124982
93	0x3d0803e1	0.033206824
94	0xbd3009df	-0.042978164
95	0x3d48ee64	0.049055472
96	0xbd2d5a5a	-0.042322494
97	0x3d2f3746	0.042777322
98	0xbce39807	-0.027782453
99	0x3cb04432	0.021516893
100	0x3c7dc4da	0.015488828
101	0xbc8764a0	-0.016527474
102	0x3cc61a44	0.024182446
103	0x3b917a38	0.0044396184
104	0x3c532bca	0.012888858
105	0x3d462258	0.048372597
106	0xbb57b9b6	-0.0032917089
107	0x3d970673	0.07374277
108	0x3b9491ee	0.0045339977
109	0x3d6799d9	0.056543205
110	0x3c77b6ab	0.015119235
111	0x3d0bfa0d	0.034174014
112	0x3c896bbe	0.016775008
113	0x3cd5b26f	0.02608606
114	0xbbe80525	-0.0070806914
115	0x3d39daaf	0.04537457
116	0xbce8c9b7	-0.028416498
117	0x3d4ba56e	0.049718313
118	0xbce92995	-0.02846221
119	0x3cdb602d	0.026779259
120	0x3b78d589	0.0037969074
121	0xbcd11a2d	-0.025525177
122	0x3d1f29de	0.038858287
123	0xbd62d770	-0.05538124
124	0x3d6a360f	0.05718046
125	0xbd3b3d43	-0.04571272
126	0x3d355f6c	0.044280455
127	0xbaba623d	-0.0014219951
128	0x3cab101f	0.02088171
129	0x3d1e1498	0.03859386
130	0xbb0b7604	-0.002128006
131	0x3d3d00fe	0.046143524
132	0x3a918e5a	0.0011105046
133	0x3c9070a0	0.017631829
134	0x3b469774	0.0030302675
135	0xbc924953	-0.01785723
136	0x3c5c761d	0.013455895
137	0xbd0bdad1	-0.034144226
138	0x3cdcf000	0.02696991
139	0xbcddedd7	-0.02709095
140	0x3d1d7ae5	0.03844728
141	0xbc762b0b	-0.015024911
142	0x3d0c21fa	0.03421209
143	0xbaebb3ca	-0.0017982658
144	0x3c1c0b98	0.009524249
145	0x3b8cc246	0.00429562
146	0xbc958507	-0.018251909
147	0x3c1f4bed	0.009722692
148	0xbd04c292	-0.03241212
149	0x3c1e1470	0.009648427
150	0xbbe4c064	-0.0069809426
151	0xbc79c3af	-0.0152444085
152	0x3d33054a	0.043706216
153	0xbcc53c46	-0.024076592
154	0x3d631bc6	0.05544641
155	0xbbb7bdf1	-0.0056073596
156	0x3cd21a88	0.025647417
157	0x3d12f929	0.03588215
158	0xbcdd5c23	-0.027021473
159	0x3d69f69b	0.057119947
160	0xbd440292	-0.047854014
161	0x3d1962cb	0.037447732
162	0xbd434b72	-0.047679372
163	0x3cbf29ee	0.023335423
164	0xbd1f1501	-0.03883839
165	0x3ba273b3	0.00495764
166	0xbcf67810	-0.030086547
167	0xbc1315be	-0.008977352
168	0xbb81909d	-0.003954007
169	0xbd087c6e	-0.03332179
170	0x3c47f733	0.012204933
171	0xbd36a2d7	-0.04458889
172	0x3c6dae96	0.014506957
173	0xbcd1fb27	-0.025632454
174	0xbc43f643	-0.011960569
175	0xbb28a7c0	-0.0025734752
176	0xbd065f9c	-0.032806024
177	0x3be40bad	0.0069593997
178	0xbcbc4d0d	-0.02298596
179	0xbc4e44ce	-0.0125896465
180	0xbbf8e384	-0.0075954814
181	0xbd19e128	-0.03756824
182	0x3b7c2ff2	0.0038480726
183	0xbcd97b07	-0.026547922
184	0xbcb4b110	-0.022057086
185	0x3b714ff3	0.0036821335
186	0xbd1b3e43	-0.037901174
187	0x3cc9632b	0.02458342
188	0xbcf8b115	-0.030357877
189	0x3c5652d3	0.01308127
190	0x3af8d617	0.0018984702
191	0xbc61273e	-0.013742266
192	0x3d036d3b	0.032086592
193	0xbc9ac93b	-0.018894782
194	0x3cbf89d8	0.023381159
195	0x3b3326cc	0.0027336357
196	0xbc5a2d54	-0.013316471
197	0x3cf48dba	0.029852737
198	0xbd01e13f	-0.031708952
199	0x3cc5dfd1	0.024154576
200	0x3ca1dee8	0.01975961
201	0xbc050529	-0.008118906
202	0x3cade2bc	0.02122628
203	0x3abf83b3	0.0014611393
204	0xbc06067e	-0.008180259
205	0x3c2ed003	0.010669711
206	0xbd21da61	-0.039514903
207	0x3cf2119c	0.029549412
208	0xbd87d24d	-0.066319086
209	0x3d338c8e	0.043835215
210	0xbd360d8b	-0.04444651
211	0x3d0f6da5	0.035016675
212	0xbc322a59	-0.010874354
213	0x3c1de1a3	0.0096363155
214	0x3c96d10e	0.018410232
215	0xbc2d6106	-0.010582214
216	0x3ccf6234	0.025315382
217	0xbcca8829	-0.02472313
218	0x3c13e9f3	0.009027946
219	0xbc9825c3	-0.018572694
220	0xbab5f7dc	-0.0013883072
221	0xbb56f42f	-0.0032799353
222	0xbb3028a0	-0.0026879683
223	0x3c007248	0.007839747
224	0x3bed7b07	0.007247332
225	0x3beeee2c	0.007291576
226	0x3c30a930	0.010782525
227	0xbc37416e	-0.011185033
228	0x3c155982	0.009115579
229	0xbce047f8	-0.027378067
230	0x3bf1e874	0.007382447
231	0xbc9866db	-0.018603733
232	0xbbae63fd	-0.005321978
233	0x3c3c7d42	0.011504473
234	0xbccff82d	-0.025386894
235	0x3d48d0bc	0.04902719
236	0xbd3fdb5c	-0.046840057
237	0x3d872b09	0.06600005
238	0xbd9c7c9b	-0.07640954
239	0x3d7286bc	0.059210524
240	0xbd9e441a	-0.07727833
241	0x3cfa5d15	0.030561963
242	0xbd2f6242	-0.042818315
243	0x3bac4587	0.0052573117
244	0x3c9af613	0.018916165
245	0xbcf2b463	-0.02962703
246	0x3d8e24af	0.069405906
247	0xbd6ab141	-0.05729795
248	0x3d9afb02	0.07567407
249	0xbd694919	-0.056954477
250	0x3d1884da	0.037236072
251	0xbd325d9e	-0.04354631
252	0xbb0df1db	-0.002165905
253	0xbc44321d	-0.011974839
254	0xbc8b0184	-0.016968496
255	0x3cbe7610	0.023249656

bias f4 [100]
0	0xbf09d588	-0.5384145
1	0xbd5cf5cc	-0.053945348
2	0xbdfbcb28	-0.12294608
3	0x3d555bc9	0.052089486
4	0x3f160da1	0.58614546
5	0x3f0a60bb	0.5405385
6	0xbd8b9c28	-0.06816894
7	0xbd5a9764	-0.053367034
8	0x3c3fcf21	0.011707098
9	0x3c000b93	0.0078152595
10	0x3ebed2c5	0.3727018
11	0xbc1a825b	-0.009430493
12	0xbd0d8009	-0.034545932
13	0xbb2396d4	-0.0024961727
14	0xbe3f4c4f	-0.18681453
15	0x3e55b052	0.20868042
16	0xbf1656cc	-0.5872619
17	0xbe6bd6a0	-0.23031092
18	0xbf090d70	-0.5353613
19	0xbf183f3e	-0.594715
20	0xbe436c2d	-0.19084235
21	0xbc9e2c36	-0.01930819
22	0x3f058ce1	0.5216809
23	0xbb8dd504	-0.004328372
24	0x3d50ffc3	0.051025163
25	0xbef98cfb	-0.48740372
26	0xbe87a003	-0.26489267
27	0x3efb61b4	0.4909798
28	0x3f011eba	0.5043751
29	0x3d0066fe	0.03134822
30	0xbe4ec17c	-0.20190996
31	0xbdf7793a	-0.12083669
32	0x3e61fcb6	0.22069058
33	0xbe40050c	-0.18751925
34	0x3dc6deb6	0.097104475
35	0xbcc8617d	-0.024460549
36	0xbcb2e364	-0.021836944
37	0x3e72ffd6	0.23730406
38	0x3f1ad746	0.6048473
39	0xbd36016b	-0.044434946
40	0x3e660224	0.22461754
41	0x3d9d5346	0.07681899
42	0x3da64c69	0.08120043
43	0xbf1dcae2	-0.616377
44	0x3d3d9319	0.04628286
45	0xbd33343e	-0.043750994
46	0xbdae91d8	-0.08523911
47	0xbe60b0d2	-0.21942452
48	0xbdd826c0	-0.10554266
49	0x3c7fdbda	0.015616382
50	0x3f0bf9d3	0.54678077
51	0x3e46c7f6	0.19412217
52	0xbd767f9a	-0.060180284
53	0xbf19c7ea	-0.6007067
54	0xbe6726ca	-0.2257339
55	0x3d26643c	0.040622935
56	0xbc31a826	-0.010843312
57	0x3ca0f290	0.019646913
58	0xbee21d33	-0.44162902
59	0x3bb705ea	0.005585422
60	0xbe13f823	-0.14450125
61	0x3e9fc35f	0.31203744
62	0x3e60e7c2	0.21963409
63	0x3bb73531	0.0055910577
64	0x3ae6c7c1	0.0017607139
65	0x3ce2d34e	0.027688649
66	0xbef0be74	-0.47020304
67	0x3e33f4c4	0.1757384
68	0xbd313040	-0.043258905
69	0x3f044030	0.5166044
70	0x3e1a8ecf	0.1509354
71	0xbac416fc	-0.0014960463
72	0xbd934b18	-0.07192057
73	0x3c05abd3	0.008158642
74	0x3d945ee9	0.07244665
75	0x3dd1f3c0	0.1025157
76	0x3d904931	0.0704521
77	0x3cbdb610	0.023158103
78	0x3e6d32a7	0.23163854
79	0xbe7a8090	-0.24463105
80	0xbc647699	-0.0139442915
81	0x3e6bca01	0.23026277
82	0x3ddf38f0	0.10899532
83	0x3d8013ab	0.06253751
84	0xbcdcc11b	-0.026947549
85	0x3e957455	0.29190317
86	0xbc81d846	-0.015850198
87	0x3f0f223b	0.55911607
88	0x3ef9ab2f	0.48763415
89	0x3da1ff7c	0.07910058
90	0x3df469d6	0.11934249
91	0xbdc56127	-0.09637671
92	0x3c807a41	0.015683295
93	0x3dab3bd1	0.083610184
94	0xbc9d0b07	-0.019170297
95	0xbf0a4cf5	-0.5402368
96	0x3f145b16	0.57951486
97	0x3acb0f8b	0.0015492303
98	0x3b36b3d6	0.0027878187
99	0x3ce9069d	0.028445536

weight f4 [100, 100]
0	0xbbfd25dc	-0.0077254605
1	0xbcdea8e2	-0.027180139
2	0xbba562b0	-0.005047165
3	0x3c0db988	0.008650191
4	0x3c13d22e	0.009022279
5	0x3a278413	0.0006390225
6	0xbb09438c	-0.0020944802
7	0xbc8ca35c	-0.01716774
8	0xbb467d96	-0.0030287257
9	0xbbfada8a	-0.0076554464
10	0xbaca4f1c	-0.0015434953
11	0x3caca065	0.021072576
12	0xbc581090	-0.013187543
13	0xbcba60be	-0.022751208
14	0xbb52cfd6	-0.0032167337
15	0x3c05a2df	0.008156507
16	0x3a90ee2f	0.0011057312
17	0xbb8c5862	-0.004282997
18	0xb71c50c8	-9.317133e-06
19	0x3c029948	0.007971115
20	0x3b4bd78e	0.0031103822
21	0xbc635996	-0.013876339
22	0xbb47bea9	-0.0030478633
23	0xbcd8b162	-0.02645177
24	0x3c2d721b	0.010586287
25	0xbc142214	-0.009041328
26	0xbb4dbb5f	-0.00313922
27	0x3a49f9fc	0.0007704792
28	0x3b81c140	0.003959805
29	0xbbee4da3	-0.0072724386
30	0x3b8cf776	0.0043019606
31	0x3981d5c5	0.00024764068
32	0x3bbe24af	0.005802713
33	0xbbbd5ca6	-0.005778867
34	0xbc74b0aa	-0.014934698
35	0xbc5d3dad	-0.013503474
36	0xbb5a4c53	-0.0033309653
37	0x3c267d23	0.010161671
38	0xbbd4b56e	-0.0064913547
39	0xbb56c7ef	-0.0032772978
40	0x3b49a8a2	0.003077068
41	0x3c7fcc42	0.015612664
42	0xbbec206f	-0.007206015
43	0xba30d6f8	-0.00067459
44	0xbd157c13	-0.03649528
45	0x3bde1d86	0.006778422
46	0xbcde0152	-0.027100239
47	0x3b366d3c	0.0027836105
48	0x3a19cb92	0.0005866821
49	0xbc4140e6	-0.011795258
50	0xbc2d0582	-0.010560395
51	0xbb32c69a	-0.002727902
52	0x3bcf7202	0.0063307295
53	0xbadbb91f	-0.0016763544
54	0xbbb7034c	-0.00558511
55	0x3bbb035d	0.005707188
56	0x3c499ac5	0.012304966
57	0x3b185ff4	0.0023250552
58	0x3b64c984	0.0034910152
59	0x3a235836	0.0006231101
60	0x3c00a2d5	0.007851322
61	0x3b47bce7	0.0030477585
62	0xbb66237b	-0.0035116363
63	0x3b879999	0.0041381833
64	0xbbd2d1ec	-0.006433716
65	0x3ca0dc2c	0.019636236
66	0xbb21a604	-0.0024665603
67	0xbab2bd8b	-0.001363681
68	0x3ac78e16	0.001522484
69	0xbb81930a	-0.003954296
70	0x3a00f4f6	0.00049193145
71	0xbb5a7ed5	-0.0033339758
72	0xbbaca8c1	-0.0052691405
73	0xbbdf7656	-0.0068195267
74	0x3b942fa9	0.004522283
75	0xbc592bde	-0.013255088
76	0x3a858848	0.001018771
77	0xbc135dfe	-0.008994577
78	0xbba0f453	-0.004911938
79	0x3aad48f0	0.001322059
80	0xbb0bd8dc	-0.0021338975
81	0xbabfa5fb	-0.001462161
82	0xbbe18353	-0.00688211
83	0x3bbf63ca	0.005840753
84	0x3bf5fa44	0.0075066406
85	0x3b052969	0.0020318872
86	0xbc6e8503	-0.01455808
87	0xbc39a9dc	-0.011332002
88	0x3b6755bc	0.0035298904
89	0x3bc315a0	0.0059535056
90	0xbce19bef	-0.027540175
91	0x3c9cae47	0.01912607
92	0x3c8bff2e	0.017089453
93	0xbce4ab54	-0.027913727
94	0xbc985ec4	-0.018599875
95	0x3b9b1d65	0.0047337287
96	0xbba0b33e	-0.00490418
97	0x3bf759f3	0.0075485646
98	0x3c6bfb56	0.014403185
99	0xbc02f128	-0.007992066
100	0xbc6b681f	-0.014368086
101	0x3d266ec6	0.040632986
102	0xbd31750a	-0.043324508
103	0x3ce4d767	0.027934743
104	0x3dbe3c21	0.092888124
105	0xbc94c3d8	-0.018159792
106	0xbc5bade2	-0.013408156
107	0xbd75385a	-0.059868194
108	0xbddc9cd4	-0.107721
109	0xbd365ff4	-0.0445251
110	0xb947d9e5	-0.00019059291
111	0x3d8ac173	0.06775179
112	0x3d3cfb49	0.04613808
113	0x3ba9f5c7	0.0051867696
114	0xbced5d55	-0.028975168
115	0x3ddc7cfd	0.10766027
116	0x3c679a72	0.014135944
117	0xbc85b9a7	-0.016323877
118	0xbd7a49c7	-0.061105516
119	0x3c4ea010	0.012611404
120	0xbca3ca4d	-0.019993925
121	0x3cd553a8	0.026040867
122	0x3df966d2	0.121778145
123	0x3c6d5903	0.014486554
124	0x3d345e59	0.04403529
125	0xbdafcfbf	-0.08584546
126	0x3be2cfa2	0.0069217244
127	0x3d9ac4ec	0.07557091
128	0x3d4d4395	0.05011328
129	0x3d9112f8	0.07083696
130	0xbcefc70e	-0.029269721
131	0xbd3477ce	-0.044059567
132	0xbec3e7eb	-0.38262877
133	0xbdfbe72e	-0.122999534
134	0xbc60c522	-0.013718875
135	0xbc634fdd	-0.013874021
136	0xbdc5a00c	-0.09649667
137	0x3df04e5f	0.11733698
138	0xbc3a1148	-0.011356659
139	0x3d9b1270	0.07571876
140	0x3e05c42a	0.13063112
141	0xbc1a8651	-0.009431438
142	0x3db2c35b	0.08728667
143	0x3c0ec73c	0.008714493
144	0x3d40f152	0.04710514
145	0xbbe4037c	-0.006958423
146	0xbd0b53c5	-0.034015436
147	0xbda16c93	-0.07882037
148	0xbc010959	-0.007875764
149	0x3d824d38	0.063623846
150	0xbc8c5a78	-0.017132983
151	0xbb0d1d17	-0.0021532231
152	0x39e22794	0.00043135567
153	0xbdd31f7c	-0.103087395
154	0xbc8f2a83	-0.017476326
155	0xb91fd41e	-0.00015242441
156	0xbde01b89	-0.10942752
157	0x3d0bbc7a	0.034115292
158	0xbd7a5445	-0.061115522
159	0x3cc12b02	0.023580078
160	0xbda788e3	-0.08180406
161	0x3ddc9861	0.107712515
162	0x3bb5cbd6	0.005547981
163	0xbc8f8aa2	-0.01752216
164	0xbdf29c5e	-0.11846231
165	0x3dd6a491	0.10480607
166	0xbd820745	-0.06349043
167	0x3c04a6be	0.008096395
168	0x3bcaeaca	0.00619254
169	0x3d1eab20	0.038737416
170	0x3dd86cd9	0.10567636
171	0x3e147494	0.14497596
172	0xbd47c384	-0.048770443
173	0xbd93ef2c	-0.07223353
174	0x3d75b3a4	0.05998577
175	0xbd834e23	-0.06411388
176	0xbd3ca7ac	-0.04605834
177	0xbc20321b	-0.009777571
178	0x3d48a7cb	0.048988145
179	0x3c18e2f7	0.009331456
180	0xbdb3cb42	-0.08779003
181	0x3db29b9d	0.08721087
182	0x3cfeef96	0.031120103
183	0x3d3997fa	0.04531095
184	0xbdbd0310	-0.092291
185	0x3de86a49	0.11348397
186	0x3dc92777	0.098219804
187	0xbc3b4b0f	-0.01143147
188	0x3d93fa31	0.072254546
189	0x3d3b4325	0.04571833
190	0x3c422f7f	0.011852144
191	0xbc577834	-0.013151217
192	0xbc5e8868	-0.0135823265
193	0xbc4819cc	-0.012213182
194	0xbd12f528	-0.03587833
195	0x3c8e3d16	0.017363112
196	0xbc69a65c	-0.014260855
197	0xbd1115fd	-0.03542136
198	0xbd5aeac3	-0.053446542
199	0x3dd43ec1	0.10363532
200	0x3c5e1718	0.013555311
201	0xbbcae08b	-0.0061913184
202	0xbc0a4b23	-0.008440766
203	0x3b51e088	0.00320247
204	0xbca1b366	-0.019738864
205	0x3c3bf7df	0.011472671
206	0x3c461996	0.012091061
207	0xbbc5143f	-0.0060143764
208	0x3bf11873	0.007357651
209	0xbb11c84b	-0.0022244628
210	0xbc45425a	-0.012039745
211	0xbb347c08	-0.0027539749
212	0x3c1590aa	0.009128729
213	0x3a96e755	0.0011513034
214	0xbc8318a2	-0.016002957
215	0xbb232c9c	-0.0024898415
216	0x37b66710	2.1744083e-05
217	0xbbe35e84	-0.0069387574
218	0x3c835e29	0.01603611
219	0x3a2ce42e	0.0006595281
220	0x3b8852b8	0.0041602515
221	0x391998ee	0.00014648188
222	0xbbe79534	-0.007067347
223	0xbbc1be7a	-0.005912599
224	0xbae43d8f	-0.0017413365
225	0x3bfeb804	0.007773401
226	0xbc6e57ef	-0.014547332
227	0xbbabffdd	-0.005249007
228	0xbba23985	-0.0049507045
229	0x3bd86665	0.0066040033
230	0xbcb4fb58	-0.022092506
231	0xbc5588ad	-0.013033074
232	0xba398f7d	-0.00070785714
233	0xbade762e	-0.0016972476
234	0x3b921bee	0.004458896
235	0xba3a3589	-0.0007103314
236	0x38f7308f	0.000117869226
237	0x392351d4	0.00015575375
238	0xbb3b883e	-0.0028615142
239	0x3b3aa07a	0.0028477
240	0xbbc18969	-0.005906273
241	0x3b7983fe	0.0038073058
242	0x3bbcd61d	0.005762829
243	0x3c23a9d1	0.009989218
244	0x3b193141	0.0023375305
245	0x3b6ac79b	0.003582454
246	0xbb427ea7	-0.0029677541
247	0x3b5f9762	0.003411733
248	0x3a60a5ca	0.00085696264
249	0x3b9c0e43	0.0047624423
250	0x3b867a48	0.0041039325
251	0x3c79755b	0.015225734
252	0xbba338a9	-0.0049811197
253	0x3c843287	0.016137375
254	0xbc92c2bd	-0.017915124
255	0x3b75aff2	0.0037488905

bias f4 [100]
0	0x3ca95109	0.020668523
1	0xbe5cff17	-0.21581684
2	0xbdd56062	-0.10418774
3	0xbd5a9a32	-0.05336971
4	0x3d054447	0.032535817
5	0xbc3cf9b6	-0.011534145
6	0x3cb3c7d6	0.021945875
7	0xbd8f1ec7	-0.06988292
8	0x3bf2c6f4	0.007408971
9	0xbd8d450c	-0.06897935
10	0xbb5bb0b5	-0.0033522074
11	0x3d8ee0ff	0.06976508
12	0xbd0d574e	-0.03450709
13	0x3ca0e423	0.019640034
14	0x3be80b64	0.007081436
15	0xbd376d6d	-0.04478209
16	0xbe6c9f0d	-0.23107548
17	0x3d752fc4	0.059860006
18	0x3d98406e	0.07434164
19	0xbc09b47b	-0.008404846
20	0xbadac581	-0.0016690941
21	0xbd823bbf	-0.06359052
22	0x3d9a80ef	0.075441234
23	0x3cd477f3	0.025936102
24	0xbd679242	-0.056535967
25	0xbd261b31	-0.040553275
26	0xbdbba556	-0.09162395
27	0xbc997e2d	-0.018736923
28	0x3d882e6c	0.06649479
29	0x3e303f73	0.17211704
30	0x3db83551	0.08994544
31	0xbe0733d9	-0.13203372
32	0x3d9067cc	0.07051048
33	0xbbd4cfad	-0.0064944834
34	0x3c0d938f	0.008641138
35	0xbbf1e5bb	-0.0073821223
36	0x3d7e5956	0.062096916
37	0xbd82a834	-0.063797385
38	0x3db74c65	0.08950118
39	0x3b3233dd	0.0027191557
40	0xbdb14ff1	-0.08657826
41	0x3e161ab8	0.1465863
42	0x3d53124e	0.05153113
43	0x3dd6ae7e	0.104825005
44	0x3de506cc	0.11182937
45	0xbd663af0	-0.05620855
46	0xbd4787d2	-0.048713513
47	0xbe78c820	-0.24295092
48	0x3cda61c1	0.02665794
49	0x3c29ff9d	0.010375884
50	0x3c9da8a9	0.019245462
51	0xbc9490e4	-0.018135495
52	0x3cfc34b3	0.030786848
53	0xbbe19616	-0.0068843467
54	0xbe1cc6dd	-0.15310235
55	0x3c9b2717	0.018939538
56	0x3dc7c993	0.09755244
57	0x3cd64bca	0.026159186
58	0x3da0bb6a	0.078482464
59	0xbcbc77dd	-0.023006374
60	0xbc05291f	-0.00812748
61	0x3b7502c1	0.0037385675
62	0x3e2aff90	0.16699052
63	0x3d20fbb7	0.039302554
64	0x3db53231	0.08847464
65	0x3df4559c	0.11930391
66	0x3e248d64	0.16069561
67	0xbc8fc820	-0.017551482
68	0xb897c045	-7.236054e-05
69	0xbc1216cb	-0.008916567
70	0xbe97f360	-0.29677868
71	0xbe255881	-0.16147043
72	0x3c80abd8	0.015706941
73	0xbcee8882	-0.029117826
74	0xbcadee9d	-0.021231944
75	0xbd1c42f8	-0.038149804
76	0xbd7eb689	-0.062185798
77	0xbcb51dbe	-0.022108909
78	0x3d9a6bba	0.075400785
79	0xbc0afbc7	-0.00848288
80	0xbd2f4046	-0.042785905
81	0xbb13d6dc	-0.0022558486
82	0xbe099888	-0.13437092
83	0x3bd2ddec	0.0064351466
84	0x3e797480	0.24360847
85	0x3d7085e5	0.05872144
86	0xbd46393c	-0.048394427
87	0xbca0ef68	-0.019645408
88	0xbc7b0b83	-0.015322569
89	0xbd188a5b	-0.03724132
90	0x3e6fbc1e	0.23411605
91	0xbd066bfe	-0.032817833
92	0x3d97f6a7	0.07420092
93	0xbcc01e8c	-0.023452066
94	0xbd16a470	-0.036777914
95	0xbc94c8ca	-0.01816215
96	0xbc217b1d	-0.009856013
97	0x3d265fa2	0.040618546
98	0x3c995adb	0.018720081
99	0x3c87ef38	0.01659356

weight f4 [100, 100]
0	0xbc1d66e3	-0.00960705
1	0xbd932426	-0.07184629
2	0x3bcff4a0	0.0063463002
3	0xbaf3d45c	-0.0018602717
4	0x3bc43afd	0.0059884773
5	0x3c01332b	0.007885735
6	0x3cc34eb7	0.023841245
7	0x3d35617b	0.044282418
8	0xbc0724bd	-0.008248505
9	0xbda14517	-0.07874506
10	0xbae44ef8	-0.0017418554
11	0x3c108308	0.008820303
12	0x3d5ee069	0.054413233
13	0xbbc967fa	-0.006146428
14	0xbbc2fb67	-0.0059503797
15	0xbc4de42e	-0.012566609
16	0xbbac883f	-0.0052652652
17	0x3d24cfd3	0.04023726
18	0xbb1a76c4	-0.0023569325
19	0xbc21fe17	-0.00988724
20	0x3c3b90cb	0.011448096
21	0x3c5e4e84	0.013568524
22	0x3be9364c	0.0071170684
23	0xbc9ff3f8	-0.019525513
24	0xbc9abb28	-0.018888071
25	0xbb48dd53	-0.0030649498
26	0xbd965dea	-0.073421314
27	0xbc381e74	-0.011237729
28	0xbc96abcc	-0.018392466
29	0x3da402a2	0.08008315
30	0xbb977be4	-0.004622923
31	0xbda3d274	-0.07999125
32	0x3d23bcbc	0.039974913
33	0x3c304504	0.010758642
34	0x3aee6bfd	0.0018190142
35	0xb9dfad20	-0.00042662863
36	0xbb947a6f	-0.004531197
37	0xbad8c53e	-0.0016538275
38	0x3d471e86	0.048613094
39	0x3b0e04c5	0.0021670323
40	0x3b497775	0.0030741368
41	0x3d8b24c2	0.0679412
42	0x3afbadf1	0.0019201619
43	0x3bf7f44e	0.007566965
44	0xbda41c6d	-0.08013234
45	0xbd4e8692	-0.050421305
46	0xbbb6c83a	-0.005578068
47	0x3da6eed1	0.08151019
48	0xbcda5f96	-0.026656907
49	0xbc9b088b	-0.018924972
50	0xbb8b9def	-0.0042607705
51	0xbc313a16	-0.010817071
52	0xbb37a5c3	-0.0028022386
53	0xbba25b82	-0.0049547562
54	0x3d94a5b3	0.07258167
55	0xb964fc98	-0.00021837873
56	0xbd163d8e	-0.036679797
57	0xbc268310	-0.010163084
58	0xbab21b5e	-0.0013588478
59	0xbb384152	-0.0028115106
60	0x3c48058c	0.012208354
61	0xbd8f53c2	-0.069983974
62	0x3c95c5a4	0.018282719
63	0xbb398bbd	-0.002831205
64	0x3d9ede67	0.07757264
65	0x3d7d6104	0.0618601
66	0xbd9fc827	-0.07801848
67	0xbc28a2ac	-0.01029269
68	0xbc2702e2	-0.010193558
69	0xbc088cca	-0.008334348
70	0xbdb22f10	-0.08700383
71	0x3d89021c	0.066898555
72	0xbb3c37af	-0.0028719713
73	0xbc3aa19f	-0.0113910725
74	0xbc894810	-0.016757995
75	0x3b897daa	0.0041958885
76	0x3d36d65d	0.044638027
77	0xbd8cfd66	-0.068842694
78	0xbc80f79e	-0.015743073
79	0x3c0a34bc	0.008435424
80	0xbd7e49d1	-0.062082116
81	0x3bb87c75	0.005630071
82	0x3c08041a	0.008301759
83	0x3bce363e	0.0062930873
84	0xbd88a557	-0.06672161
85	0xbc80e472	-0.015733931
86	0xba909e3c	-0.0011033486
87	0x3cc278c0	0.023739219
88	0x3bb2d9b6	0.005458082
89	0xbd882aa6	-0.066487595
90	0x3dad8441	0.08472491
91	0xbc0db586	-0.008649236
92	0x3b555800	0.0032553673
93	0xbc2baf54	-0.010478813
94	0xbbd8211e	-0.0065957448
95	0xbc1206ff	-0.008912801
96	0x3cc7a7b5	0.024371961
97	0xbc266d8f	-0.010157957
98	0x3b168905	0.0022969854
99	0x3b7fc8de	0.0039029638
100	0x39ce2ecd	0.0003932625
101	0xbd338f01	-0.04383755
102	0xbb7cf55f	-0.00385984
103	0xbbb897a0	-0.0056333095
104	0x3c01498d	0.007891071
105	0x3c12fb9b	0.00897112
106	0x3c11b91f	0.008894234
107	0x3b0ff159	0.0021963923
108	0x3b3c13f1	0.002869841
109	0xbc944edb	-0.018104007
110	0xbac97982	-0.0015371295
111	0xb9e2406f	-0.00043154086
112	0x3c3ba34e	0.011452509
113	0xbbfbd4d2	-0.0076852823
114	0x3bc67e9f	0.006057575
115	0xbc22b846	-0.0099316295
116	0xbced2d16	-0.028952163
117	0x3c03b516	0.00803878
118	0x3c0fd061	0.008777709
119	0x3b440e8b	0.0029915895
120	0x3c053cd9	0.008132183
121	0xbc059bfa	-0.0081548635
122	0xbaa9f641	-0.0012967066
123	0xbbad784e	-0.0052938825
124	0xbb96506c	-0.0045872238
125	0xbbb180f9	-0.005416986
126	0xbd06ab98	-0.03287849
127	0xbc293db3	-0.010329652
128	0xb98b9815	-0.00026625456
129	0x3d486ff9	0.04893491
130	0x3a558d71	0.00081463816
131	0xbd4698ab	-0.04848544
132	0x3ccce80a	0.025012989
133	0x3c135189	0.008991607
134	0xbbbe36cb	-0.0058048717
135	0x3bb855d5	0.0056254664
136	0xbaa38523	-0.0012475591
137	0xbbf658fd	-0.0075179324
138	0x3ce8bf32	0.028411482
139	0x3bc19193	0.0059072464
140	0xbb9a4ca8	-0.004708845
141	0x3cf9d529	0.03049715
142	0x3b956483	0.004559101
143	0x3b73f148	0.0037222672
144	0xbc51c112	-0.012802379
145	0xbd0ab931	-0.03386802
146	0xbc124c64	-0.008929346
147	0x3c6a98af	0.014318629
148	0xbc622ddc	-0.013804879
149	0xbb191186	-0.0023356392
150	0x3c0411eb	0.008060913
151	0x3b5c16a5	0.0033582833
152	0x397e0012	0.00024223354
153	0xbb8e29cf	-0.00433848
154	0x3abb6908	0.001429827
155	0x3abf1e5e	0.0014581194
156	0xbb726bf6	-0.003699062
157	0x3b892d34	0.004186297
158	0x3aef97e2	0.0018279518
159	0x3b5c4afb	0.0033614028
160	0x3b30a161	0.0026951658
161	0xbcd93395	-0.026513854
162	0x3bb4b83d	0.005515127
163	0x39e65c70	0.0004393789
164	0x3d1aff44	0.037841097
165	0x3d281a21	0.041040543
166	0xbc36f13a	-0.011165911
167	0xbc0cafd6	-0.008586844
168	0xbb89b942	-0.0042029927
169	0xbc07fc91	-0.008299963
170	0xbd3bb09b	-0.04582272
171	0x3c6ee8e6	0.0145818945
172	0xbc054bb6	-0.008135727
173	0xbbf5b113	-0.0074979155
174	0xbc10641b	-0.0088129295
175	0x3a4dddd3	0.0007853184
176	0x3bf77f9d	0.0075530545
177	0xbc83fab2	-0.016110752
178	0x3bc01816	0.0058622463
179	0xbbdf22ee	-0.006809584
180	0xbd2682cb	-0.040652078
181	0xbb7eacbc	-0.0038860282
182	0xbbb9729b	-0.005659414
183	0x3a83a141	0.0010042564
184	0xbb020a37	-0.0019842514
185	0xbb222dcf	-0.0024746542
186	0xbb8358fb	-0.00400841
187	0x3c1acc68	0.009448148
188	0xbbbd8af7	-0.005784388
189	0xbd33bc6d	-0.04388087
190	0x3d4b0f6a	0.049575247
191	0x3b7153d1	0.003682364
192	0x3bb0765c	0.0053852033
193	0x3b6f5ca2	0.003652372
194	0x3b91cfa7	0.004449803
195	0xbb9b0515	-0.0047308304
196	0xba6757f5	-0.00088250573
197	0xbbb3d069	-0.005487491
198	0x393cf319	0.00018019638
199	0x3aeca7c5	0.001805537
200	0x3c0d8d96	0.008639714
201	0x3d3dd626	0.046346806
202	0x3c102ad6	0.008799275
203	0x3b50d086	0.003186257
204	0xbc1405a8	-0.009034552
205	0xbbb8eb98	-0.0056433193
206	0xbc16f7fc	-0.0092143975
207	0xb99c796f	-0.00029845114
208	0x3b9d4404	0.004799368
209	0x3c26ab32	0.010172652
210	0x3bb5f64c	0.0055530425
211	0xbc32c5b1	-0.010911391
212	0x3bcdddcd	0.006282544
213	0x3c1bdc26	0.009512937
214	0x3bbc08d6	0.005738358
215	0x3bd964cc	0.0066343304
216	0x3d4e4a79	0.05036399
217	0xbc7b51c0	-0.015339315
218	0xb8d27ad1	-0.00010036457
219	0x3c089ede	0.008338658
220	0xbc192539	-0.0093472535
221	0xbb7b5a54	-0.00383534
222	0x3b2efdd5	0.0026701589
223	0x3bc3fda8	0.005981166
224	0xbab6fdbd	-0.0013961118
225	0x3c19f121	0.0093958685
226	0x3d5880bb	0.052857142
227	0x3b4e494e	0.0031476798
228	0x39e211ca	0.00043119333
229	0xbd292310	-0.041293204
230	0xbbecee25	-0.0072305375
231	0x3d3ffd83	0.046872627
232	0xbcf54cf5	-0.029943923
233	0x3bab0cb4	0.00522002
234	0xbbda14dc	-0.0066553187
235	0xbb67933f	-0.0035335568
236	0xbb6ebfbd	-0.0036430203
237	0x3c3f6977	0.01168286
238	0xbd0c67f1	-0.034278814
239	0xbbcec9fb	-0.006310699
240	0xbb01d77c	-0.0019812277
241	0xbd3b176e	-0.04567664
242	0xbbc68dd9	-0.00605939
243	0xbc9fddd9	-0.019514965
244	0xbbf06b7f	-0.0073370333
245	0x3d049698	0.03237018
246	0x3a2be105	0.0006556663
247	0xbbc13f5c	-0.0058974456
248	0x3c9bff28	0.019042566
249	0x3a82abea	0.0009969447
250	0xbb5df439	-0.0033867492
251	0xbb09c3a2	-0.0021021147
252	0xb9c9fd4c	-0.00038526428
253	0x39e17213	0.00043000336
254	0x3c137cd8	0.009001933
255	0xba7e4a9c	-0.0009700449

bias f4 [100]
0	0x3d32eb52	0.04368145
1	0x3d6a9a53	0.05727608
2	0xbdb846c7	-0.08997875
3	0x3c74a942	0.014932932
4	0xbd5528de	-0.052040927
5	0x3dc26a16	0.094928905
6	0xbcb80b62	-0.022466365
7	0x3dcfaa4f	0.10139906
8	0x3ce404b3	0.027834272
9	0xbd131713	-0.035910677
10	0xbc76d703	-0.015065911
11	0xbda8cc11	-0.082420476
12	0xbc417e7d	-0.011809942
13	0x3e86b323	0.26308545
14	0x3da40731	0.08009184
15	0x3e043b0d	0.12913151
16	0xbd81f968	-0.063463986
17	0x3da06388	0.07831484
18	0x3bcca90b	0.0062457374
19	0xbe525f72	-0.20544222
20	0xbb146971	-0.0022645856
21	0x3e047cea	0.12938276
22	0x3dcc36c4	0.09971383
23	0x3d82ce4a	0.06387003
24	0x3e136360	0.14393377
25	0x3d7c24e5	0.061558623
26	0x3e368787	0.17825137
27	0x3d005872	0.031334348
28	0x3e87be2a	0.2651227
29	0xbbaba39d	-0.00523801
30	0xbd93f982	-0.07225324
31	0xbd747a4c	-0.059686944
32	0xbd6bb429	-0.05754486
33	0x3d8015c9	0.06254155
34	0x3bf99a18	0.0076172464
35	0xbcc2458f	-0.023714809
36	0xbe11f71e	-0.14254424
37	0xbe4379bd	-0.19089408
38	0x3d839408	0.06424719
39	0xbe04ea1b	-0.12979929
40	0xbe1dcc8a	-0.15410057
41	0xbcf01bbc	-0.0293101
42	0xbc06d79e	-0.008230118
43	0x3dd99eab	0.10625967
44	0xbd5f2a02	-0.05448342
45	0xbd121314	-0.035662726
46	0x3dad5d63	0.08465078
47	0x3d92c10b	0.07165726
48	0xbd6207e5	-0.05518331
49	0x3daa8f3b	0.083281
50	0xbe344afe	-0.17606732
51	0xbc2a9fcd	-0.010414076
52	0xbdd6bcac	-0.10485205
53	0x3c582da0	0.013194472
54	0x3e0278b5	0.12741359
55	0x3dc36e84	0.095425636
56	0xbda942fc	-0.082647294
57	0xbd17bb43	-0.03704382
58	0xbe68a1c5	-0.2271796
59	0x3da2c591	0.07947839
60	0x3da4b37a	0.08042045
61	0x3eb95c04	0.36203015
62	0x3daae6c2	0.08344795
63	0x3c97c7af	0.018527834
64	0xbe0d19bc	-0.13779348
65	0xbe1ea8bc	-0.15494055
66	0x3c1a65fd	0.00942373
67	0x3e020afc	0.12699503
68	0xbd9dc5b3	-0.07703724
69	0x3bd0a015	0.0063667395
70	0x3cdeff19	0.02722125
71	0xbce6e565	-0.028185556
72	0x3e7e1703	0.24813466
73	0xbcd18593	-0.025576388
74	0x3e35d095	0.17755349
75	0x3c67cdcb	0.014148186
76	0x3d15f01f	0.03660595
77	0x3d203f9f	0.039123174
78	0x3d3f405c	0.046692237
79	0x3e8eb943	0.27875718
80	0xbdbafe50	-0.091305375
81	0xbcd8b41c	-0.02645307
82	0x3dc7f3b0	0.097632766
83	0xbe3fc831	-0.1872871
84	0xbdbbba40	-0.09166384
85	0x3d91cb0b	0.071188055
86	0x3e19f9bf	0.15036677
87	0xbdc33618	-0.09531802
88	0xbc591017	-0.013248465
89	0xbde60a5d	-0.112324454
90	0xbe5458fa	-0.20737067
91	0xbd98732d	-0.07443843
92	0x3d3efa3b	0.046625357
93	0x3c64343e	0.013928471
94	0x3d973dcb	0.07384833
95	0xbc7d7903	-0.015470746
96	0x3dc448bc	0.095841855
97	0x3da646d4	0.08118978
98	0xbe3aae03	-0.18230443
99	0xbd4545fe	-0.048162453

weight f4 [2, 100]
0	0xbeb2b7ed	-0.3490595
1	0xbe075a08	-0.13217938
2	0x3dedc204	0.11609271
3	0x3e2878a0	0.16452265
4	0x3dff0055	0.12451235
5	0x3e91e191	0.28492406
6	0x3d908dd6	0.07058303
7	0xbe1d6c2b	-0.15373294
8	0xbddd9ce3	-0.108209394
9	0x3e2bcc54	0.16777164
10	0x3e2695f5	0.16268142
11	0x3d44b4c7	0.048023965
12	0x3d2200d1	0.03955156
13	0xbec44f47	-0.38341734
14	0xbc7d4017	-0.015457175
15	0x3c5342f1	0.012894378
16	0xbe088027	-0.13330136
17	0x3d122605	0.03568079
18	0x3ddfae1c	0.109218806
19	0x3d2c36fe	0.042044632
20	0xbcc24205	-0.023713121
21	0xbe42aa83	-0.19010358
22	0x3d5e80e6	0.054322146
23	0xbd9a228f	-0.07526123
24	0xbdbc0a2d	-0.091816284
25	0x3dd6c4f4	0.104867846
26	0xbe14d1fc	-0.14533228
27	0xbdad2bd2	-0.08455624
28	0xbe699dd9	-0.2281412
29	0x3c9087a9	0.017642813
30	0x3c935b02	0.017987732
31	0x3e0d3013	0.1378787
32	0x3e1e9767	0.15487443
33	0xbe277604	-0.16353613
34	0x3d566258	0.05233988
35	0xbe2cf8ae	-0.16891739
36	0xbde00cfb	-0.10939976
37	0xbedea246	-0.4348318
38	0xbd46b0c2	-0.048508413
39	0xbd90944b	-0.07059535
40	0x3e9db6fa	0.30803663
41	0xbe084b8d	-0.1331007
42	0xbcf96f6c	-0.030448638
43	0x3e14a16e	0.14514706
44	0x3c908aae	0.017644253
45	0x3de73823	0.11290004
46	0x3e2f1ed2	0.17101601
47	0xbe2fe659	-0.17177714
48	0x3c977987	0.018490566
49	0x3e91554e	0.28385395
50	0x3a45e2f6	0.00075487734
51	0xbe32854f	-0.17433666
52	0x3e495f53	0.1966527
53	0x3e0062c4	0.12537676
54	0x3e072b51	0.13200118
55	0xbd629f86	-0.055327915
56	0x3e2d1165	0.16901167
57	0xbe89c74d	-0.26909867
58	0x3e56533f	0.20930193
59	0x3dfd1971	0.12358368
60	0x3c958bc4	0.018255122
61	0x3ef559b5	0.47920004
62	0x3dd7e50b	0.10541733
63	0xbcb5e822	-0.022205416
64	0xbc6e2809	-0.014535912
65	0xbe50fe15	-0.20409425
66	0x3e4da869	0.20083775
67	0x3d23e53a	0.04001353
68	0xbdcb8458	-0.09937352
69	0xbe0a7736	-0.13522038
70	0x3de6d404	0.112709075
71	0xbe345794	-0.17611533
72	0x3d3d2d20	0.046185613
73	0x3e2ba4fb	0.16762154
74	0xbd0d0251	-0.034426037
75	0xbdf837b6	-0.12120001
76	0xbd93213a	-0.07184072
77	0xbcadc61d	-0.021212632
78	0x3d9278dc	0.07151958
79	0xbe1a5c11	-0.15074183
80	0x3d3c6b3f	0.046000715
81	0x3d60833d	0.05481266
82	0xbe1bd42e	-0.15217659
83	0x3e9f4910	0.3111043
84	0xbdd7952b	-0.105264984
85	0x3e8ceb26	0.27523154
86	0x3d31455a	0.04327903
87	0xbdd4bf3a	-0.10388036
88	0x3d0a75a9	0.033803616
89	0xbcd70e56	-0.026251953
90	0xbe47675d	-0.19473024
91	0x3e2eb9e8	0.17063105
92	0xbdb29ca6	-0.087212846
93	0xbddfc534	-0.109262854
94	0x3e21c468	0.1579758
95	0xbe5649a3	-0.20926528
96	0x3d4180bb	0.047241908
97	0xbe05c1ac	-0.13062161
98	0x3d112d7b	0.035443764
99	0x3e6e879d	0.2329392
100	0x3cf4dd30	0.029890627
101	0x3dbb2a2c	0.09138903
102	0xbe14ead6	-0.14542708
103	0x3d07c901	0.033150677
104	0xbdb25dab	-0.08709272
105	0x3e1b7b96	0.15183863
106	0xbd347317	-0.04405507
107	0x3e1a7652	0.15084198
108	0x3d4d578d	0.050132323
109	0xbd4dee1a	-0.0502759
110	0xbc9d3f12	-0.019195113
111	0xbe106336	-0.14100346
112	0xbd0cb83d	-0.03435539
113	0x3ea385b4	0.31937945
114	0x3e08aadc	0.13346428
115	0x3e5334ab	0.2062556
116	0xbde7e4d3	-0.11322942
117	0x3e0f5c72	0.14000109
118	0x3ca03ebb	0.019561162
119	0xbe9af790	-0.30267
120	0xbb75876a	-0.0037464746
121	0x3e424172	0.18970278
122	0x3e2fc469	0.17164768
123	0x3dd0c785	0.10194305
124	0x3e5f42a4	0.21802765
125	0x3dedba75	0.116078295
126	0x3e819121	0.25306037
127	0x3d428cd0	0.04749757
128	0x3eb3c391	0.35110143
129	0x3b4233a7	0.0029632838
130	0xbdf19c92	-0.117974415
131	0xbdc1c4d6	-0.094613716
132	0xbd9f955f	-0.07792162
133	0x3db7d6b9	0.08976502
134	0x3c237bbf	0.009978234
135	0xbd2cee1a	-0.04221926
136	0xbe67b478	-0.22627437
137	0xbe88e8b7	-0.26740047
138	0x3de7f1ff	0.11325454
139	0xbe55ac09	-0.20866407
140	0xbe48a665	-0.19594724
141	0xbd684e8a	-0.056715526
142	0xbc7ab956	-0.015302977
143	0x3e391440	0.18074131
144	0xbdd7dcb9	-0.105401464
145	0xbd782893	-0.06058557
146	0x3e2009d6	0.15628752
147	0x3dd0287e	0.10163973
148	0xbdd4c7c4	-0.10389665
149	0x3e1ed5ef	0.15511297
150	0xbe883f12	-0.2661062
151	0xbcf67212	-0.03008369
152	0xbe1c62ce	-0.15272066
153	0x3c8bac54	0.017049946
154	0x3e4a40da	0.19751301
155	0x3e2237b4	0.15841562
156	0xbdfacfb4	-0.122466475
157	0xbd8ad1db	-0.06778308
158	0xbea7f99e	-0.3280763
159	0x3e0fb176	0.1403254
160	0x3e09834d	0.13428994
161	0x3f26786a	0.6502749
162	0x3e136979	0.14395703
163	0x3cd46c58	0.025930569
164	0xbe6343b6	-0.22193798
165	0xbe7090eb	-0.23492782
166	0x3cb6546e	0.022257056
167	0x3e4f1023	0.20221
168	0xbe070afc	-0.13187784
169	0xbbbaba7e	-0.005698501
170	0x3d51af86	0.051192783
171	0xbd68eaf6	-0.0568647
172	0x3ebaf32d	0.36513653
173	0xbd1bd8da	-0.038048603
174	0x3e8d32ba	0.27577764
175	0x3cdfefe8	0.027336076
176	0x3d9842fb	0.074346505
177	0x3d9077db	0.070541106
178	0x3da02b47	0.078207545
179	0x3ec4bb6f	0.3842425
180	0xbe1c3a15	-0.15256532
181	0xbd4bb758	-0.049735397
182	0x3e207ad4	0.15671855
183	0xbe79f7f6	-0.24410996
184	0xbe265fa4	-0.16247422
185	0x3e008772	0.12551668
186	0x3e6c638e	0.23084852
187	0xbe218abf	-0.15775584
188	0xbd27168b	-0.040792983
189	0xbe47bea7	-0.19506322
190	0xbe9e52ed	-0.30922642
191	0xbde08a0c	-0.1096383
192	0x3da37627	0.0798152
193	0x3c97d160	0.018532455
194	0x3e022b2c	0.12711781
195	0xbd09626b	-0.033541124
196	0x3e2759d5	0.16342862
197	0x3e08f041	0.133729
198	0xbe8b27ce	-0.27178806
199	0xbd86fa0b	-0.06590661

bias f4 [2]
0	0xb91c5d4e	-0.00014912078
1	0x3f0aa139	0.54152256
