Approximate Bayesian Computation/model.pt (torch, 125263 bytes, 8 tensors)

weight f4 [100, 100]
-0.018456245 0.0014797262 -0.06412082 0.033702683 -0.05285602 0.032972127 -0.053556066 0.042746246
-0.01177656 -0.002298842 -0.024365421 0.01060581 0.03178513 -0.045299843 0.0097722355 -0.044920243
0.043255143 -0.1023657 0.026208388 -0.06481859 0.05812252 -0.09034174 0.016333213 -0.035157856
0.014269718 -0.02361693 -0.030706719 0.06600343 -0.013722451 0.020048302 -0.05669473 0.054156788
-0.009101426 -0.020949667 -0.01179798 0.020089196 0.045576353 -0.091768056 0.070978805 -0.056109603
0.09262602 -0.12339149 0.0960449 -0.08707102 0.0633719 -0.10972556 0.058299057 -0.0588423
0.016296044 -0.033332847 0.017181585 0.02337768 -0.0022091535 0.00036986667 -0.023325425 0.017630728
-0.032520868 -0.024285037 0.0027138114 0.028488083 0.022675866 -0.0150958765 0.04238203 -0.017512906
0.05084732 -0.07161061 0.062135834 -0.030452421 0.048632365 -0.05499422 0.029161999 0.039511755
-0.018705016 0.027687514 -0.05652007 0.07053909 -0.043612972 0.000101740785 -0.052426547 0.042303026
-0.0019910964 -0.014254079 0.025970865 -0.013869972 0.092791475 -0.114733815 0.11959159 -0.11407731
0.13829844 -0.14777784 0.16404471 -0.13289475 0.1582001 -0.11923782 0.116637304 -0.1163252
0.110512555 -0.07783677 0.04851644 -0.030600375 -0.033092424 -0.0045761764 -0.051944602 -0.016755579
-0.026056161 0.040214192 -0.04971454 0.016947787 -0.02136462 0.013642922 -0.011236546 0.015064314
0.01784382 0.055368517 -0.007327716 0.015108996 -0.021499952 -0.026382774 -0.02636438 -0.013297075
-0.017701618 0.01861388 0.024239132 0.02754107 -0.009964698 0.025239883 -0.016026715 0.0052596345
-0.021241551 -0.0041525075 0.001209771 0.031290058 -0.039386608 0.007132403 -0.016051082 0.014947718
-0.022689573 -0.024088426 -0.009605563 0.03351889 0.01101569 -0.034473583 0.054943435 -0.05096826
0.109818056 -0.06629563 0.014869731 0.03590465 -0.013995141 0.057104733 -0.020822866 0.037842106
0.006114679 0.055139907 -0.059991613 0.05058885 -0.061846152 0.035673507 -0.014872501 -0.004231003
-0.003950308 0.01163945 -0.01700302 0.03881927 -0.03636951 0.015699446 -0.006775365 0.0012282885
0.0074400986 -0.005644631 -0.010298441 0.028835528 -0.0022435319 0.044720855 -0.0155377695 0.033014167
-0.0029022687 0.024508324 -0.01598293 0.055374674 -0.011117031 0.044288777 -0.011589221 0.03378413
0.0015737375 0.0036740734 -0.00784757 0.00563357 -0.01244021 -0.0011557017 0.0050931573 -0.013937589
0.011843203 -0.0129585415 0.0125029115 -0.012651272 0.011706502 -0.03408338 0.016693352 -0.03493341
-0.01229082 -0.01936867 -0.0020193632 -0.015369585 0.025856102 0.0031911214 0.0024657077 -0.060088653
0.010029773 -0.039332658 0.0020988279 -0.01835533 0.03641721 -0.017971246 0.0091061685 -0.056258515
0.023952616 -0.09108779 0.041256543 -0.030513586 0.07872371 -0.027705885 0.040989917 -0.024638394
0.015236351 -0.06276064 0.019412205 -0.008383307 0.05077928 0.0045863385 0.00024569177 0.032702707
-0.020933071 0.030505408 -0.013356838 0.06573658 -0.02474401 0.011162582 -0.05141062 0.019959658
-0.011400799 -0.04218667 0.010726603 -0.01235678 0.073855974 -0.067872174 0.04452343 -0.08102912
0.11519866 -0.10895912 0.13754292 -0.1049295 0.13924198 -0.120421216 0.06436422 -0.072591886
00000000: 8d31 97bc 5ff3 c13a c751 83bd d30b 0a3d
00000010: 8e7f 58bd c80d 073d 9b5d 5bbd b016 2f3d
00000020: 79f2 40bc 2ba8 16bb fe99 c7bc fec3 2d3c
00000030: 2031 023d 548c 39bd ba1b 203c 4afe 37bd
00000040: 4e2c 313d 1ca5 d1bd f9b2 d63c 9cbf 84bd
00000050: e111 6e3d 1705 b9bd 3bcd 853c af01 10bd
00000060: 89cb 693c 4b78 c1bc a88c fbbc ce2c 873d
00000070: 22d4 60bc 563c a43c bc38 68bd 82d3 5d3d
00000080: 261e 15bc a39e abbc 514c 41bc 1992 a43c
00000090: 45ae 3a3d e4f0 bbbd 565d 913d 2fd3 65bd
000000a0: b6b2 bd3d adb4 fcbd 30b3 c43d 4a52 b2bd
000000b0: 20c9 813d cbb7 e0bd feca 6e3d a004 71bd
000000c0: 487f 853c 0688 08bd 65c0 8c3c 8c82 bf3c
000000d0: 72c7 10bb aaea c139 f614 bfbc 516e 903c
000000e0: 9a34 05bd 6af1 c6bc 33da 313b d75f e93c
000000f0: bdc2 b93c b254 77bc c898 2d3d 3a77 8fbc
00000100: 4845 503d 95a8 92bd 2582 7e3d 5b77 f9bc
00000110: bb32 473d 9f41 61bd 25e5 ee3c 14d7 213d
00000120: 433b 99bc edd0 e23c 9781 67bd cc76 903d
00000130: 84a3 32bd ab5d d538 38bd 56bd f045 2d3d
00000140: 0e7d 02bb f189 69bc dac0 d43c e13e 63bc
00000150: 7509 be3d 90f9 eabd 6fec f43d 5da1 e9bd
00000160: 1b9e 0d3e 1353 17be 56fb 273e 9015 08be
00000170: 35ff 213e f532 f4bd 8adf ee3d e83b eebd
00000180: 6854 e23d e268 9fbd 2db9 463d a3ad fabc
00000190: ec8b 07bd c0f3 95bb ddc3 54bd ff42 89bc
000001a0: bb73 d5bc a3b7 243d 79a1 4bbd 16d6 8a3c
000001b0: db04 afbc 9086 5f3c 7d19 38bc 50d0 763c
000001c0: 342d 923c 19ca 623d 561d f0bb b98b 773c
000001d0: ab20 b0bc b020 d8bc 1dfa d7bc fadb 59bc
000001e0: fc02 91bc 237c 983c 2591 c63c cf9d e13c
000001f0: f942 23bc dfc3 ce3c 754a 83bc 0359 ac3b
00000200: c302 aebc c211 88bb 2e91 9e3a 012a 003d
00000210: da53 21bd efb6 e93b 8f7d 83bc 46e7 743c
00000220: 7cdf b9bc 1755 c5bc a760 1dbc 1b4b 093d
00000230: 277b 343c 2c34 0dbd 5e0c 613d 18c4 50bd
00000240: 4ae8 e03d 01c6 87bd 2ca0 733c c110 133d
00000250: e04b 65bc a7e6 693d b794 aabc 5300 1b3d
00000260: a55d c83b 62da 613d c4b9 75bd 4136 4f3d
00000270: 6452 7dbd 621e 123d caab 73bc 3aa4 8abb
00000280: 9671 81bb 64b3 3e3c eb49 8bbc f400 1f3d
00000290: 32f8 14bd 209c 803c e203 debb 86fe a03a
000002a0: 12cc f33b 99f6 b8bb cbba 28bc 7c38 ec3c
000002b0: 3808 13bb 372d 373d 2192 7ebc dd39 073d
000002c0: fd33 3ebb aec5 c83c a2ee 82bc 8ed0 623d
000002d0: 3524 36bc 2668 353d b7e0 3dbc 3a61 0a3d
000002e0: de45 ce3a b9c8 703b 1893 00bc cf99 b83b
000002f0: 06d2 4bbc ea7a 97ba 80e4 a63b 7c5a 64bc
00000300: fe09 423c 1050 54bc 03d9 4c3c 4847 4fbc
00000310: a1cc 3f3c 049b 0bbd 7fc0 883c 5616 0fbd
00000320: 6f5f 49bc 0cab 9ebc 4b57 04bb b6d0 7bbc
00000330: 2dd0 d33c 2222 513b b697 213b 851f 76bd
00000340: eb53 243c 481b 21bd 7d8c 093b eb5d 96bc
00000350: 362a 153d 6f38 93bc 0a32 153c 546f 66bd
00000360: 4738 c43c 3c8c babd 9ffc 283d a1f7 f9bc
00000370: e539 a13d 74f7 e2bc 0be5 273d 75d6 c9bc
00000380: e3a1 793c a788 80bd 5806 9f3c 235a 09bc
00000390: effd 4f3d ff48 963b 31d0 8039 46f3 053d
000003a0: d57b abbc 7ae6 f93c a4d6 5abc e6a0 863d
000003b0: f3b3 cabc 43e3 363c f193 52bd 7082 a33c
000003c0: 6bca 3abc eecb 2cbd a2be 2f3c 1774 4abc
000003d0: cd41 973d 9100 8bbd 335e 363d 98f2 a5bd
000003e0: 46ed eb3d f625 dfbd 0dd8 0c3e 47e5 d6bd
000003f0: 7395 0e3e 669f f6bd 63d1 833d 0eab 94bd

bias f4 [100]
-0.06564486 0.4570459 0.21746105 -0.24617942 -0.011162389 -0.13623387 -0.47845498 0.40994754
0.938457 -1.0096536 0.17455845 0.12209779 -0.967508 0.27228373 0.99555016 -0.06742963
0.38555962 -0.034282707 -0.09724745 0.041275118 -0.034586024 -0.23158154 -0.5597904 0.04086545
0.44203004 -0.15235916 0.97245604 0.525305 -0.04316609 -0.03325089 -0.117402166 0.91712326
0.96924174 0.091649465 -0.20809278 0.023177752 -0.576436 -0.24397221 -0.16122554 0.9629567
0.33438712 0.09974152 0.96376693 -0.0035820159 0.9619559 0.33443058 0.088201925 0.36316776
0.1458364 -0.04511233 1.0019853 0.9709632 0.14947678 -0.98748565 0.2781044 -0.014576033
-0.010163363 -0.23958161 0.10771161 -0.9951872 -1.0009 -0.37477443 -0.20644173 -0.05216397
1.0019982 0.17719561 0.05132217 0.9464615 0.95591956 -0.93893546 -0.23774907 0.039658625
-0.052809563 0.24842916 -0.99825186 -0.01577104 -0.9523544 -0.9516511 -0.42907032 0.05144225
0.067086 0.3240127 -0.18518986 0.5176102 0.24569365 -0.9608901 -0.2362309 -0.028451
0.21763594 0.4715112 -0.01205457 -0.39608362 0.75102276 -0.0895473 -0.3948549 -0.39574543
-0.18711875 0.52175105 1.003891 -0.06433167
00000000: d070 86bd ec01 ea3e 1cae 5e3e 7516 7cbe
00000010: 74e2 36bc e480 0bbe 0df8 f4be a5e4 d13e
00000020: b83e 703f 543c 81bf 73bf 323e 680e fa3d
00000030: 9bae 77bf c668 8b3e 60dc 7e3f 8c18 8abd
00000040: 1268 c53e 066c 0cbd ac29 c7bd 1910 293d
00000050: 13aa 0dbd b623 6dbe 6c4e 0fbf 8862 273d
00000060: c351 e23e 0a04 1cbe e1f2 783f 637a 063f
00000070: edce 30bd 1632 08bd 8c70 f0bd 97c8 6a3f
00000080: 3a20 783f b7b2 bb3d 4616 55be 45df bd3c
00000090: 4f91 13bf dad3 79be 4f18 25be 5584 763f
000000a0: ca34 ab3e 4845 cc3d 6eb9 763f 41c0 6abb
000000b0: be42 763f 7c3a ab3e 36a3 b43d 20f1 b93e
000000c0: 2356 153e b5c7 38bd 0e41 803f 0b91 783f
000000d0: 7110 193e dccb 7cbf b363 8e3e 50d0 6ebc
000000e0: 3c84 26bc e254 75be e897 dc3d 97c4 7ebf
000000f0: 7e1d 80bf 6fe2 bfbe 7665 53be e3a9 55bd
00000100: 7a41 803f c472 353e 3237 523d 4d4b 723f
00000110: 25b7 743f 135e 70bf 7e74 73be 1571 223d
00000120: d74e 58bd 3764 7e3e 6f8d 7fbf 4532 81bc
00000130: 7fcd 73bf 689f 73bf 1baf dbbe 1cb5 523d
00000140: 6364 893d fee4 a53e 69a2 3dbe 1a82 043f
00000150: 1e97 7b3e e5fc 75bf 83e6 71be 1212 e9bc
00000160: f5db 5e3e ea69 f13e 8880 45bc 79cb cabe
00000170: 0743 403f 9364 b7bd 6c2a cabe 259f cabe
00000180: 0f9c 3fbe 7a91 053f 807f 803f 53c0 83bd

weight f4 [100, 100]
0.0775251 0.10341069 -0.094922245 0.004661522 0.018803976 0.06805021 0.14771807 -0.10182367
-0.08069847 0.11848045 -0.026802324 -0.016190091 0.07147647 -0.18349193 -0.025762353 -0.043651428
0.029141385 -0.019372042 -0.0672141 -0.0043035084 0.056820396 -0.08637274 0.1215508 0.06412556
-0.16605882 0.06267796 -0.10835112 0.18581828 0.018331202 -0.009769147 0.0062281815 -0.021933965
-0.0284469 0.07815604 -0.063224316 -0.023448518 -0.028060813 0.062115323 0.14751363 0.035523526
-0.1805191 0.021109493 0.0543082 0.11191065 -0.107589655 0.02951674 -0.061898123 0.07715224
-0.010949052 0.024083517 -0.087155186 0.023722468 -0.009651767 0.13414496 -0.11621171 0.034577157
0.038787697 -0.061953615 -0.014464574 -0.027748452 0.021230368 0.071365885 -0.067423575 0.09048707
0.028502313 -0.02684114 -0.0980886 -0.041105732 -0.13541618 0.08594401 -0.07766531 0.011311945
-0.025059378 0.21781585 -0.010300004 0.102930814 0.04149674 0.07710449 -0.07343424 0.040592507
0.007378989 0.045849584 -0.02937701 -0.044943247 0.08143832 -0.070521474 0.10211669 -0.085305125
0.027519684 -0.047133964 -0.014429425 -0.02615129 0.04745293 -0.0038440553 0.120359026 -0.16987911
0.033704516 0.02828276 -0.054802403 0.14439723 0.036031336 -0.003373058 -0.038216215 -0.00019524865
-0.2580651 0.0038205322 0.07512056 -0.13051611 0.035233043 -0.051389888 0.05043293 -0.044544246
0.019960776 0.028809847 0.051209547 -0.055089068 -0.029490614 0.00089082104 -0.027288087 -0.040809177
0.01592116 0.0063078403 0.111824416 -0.083800055 -0.10988877 0.03487861 -0.13589509 0.02489415
0.2007023 0.0835929 -0.02130631 -0.03365126 -0.08571637 -0.05613802 0.025251862 -0.19369654
-0.06237975 -0.06889929 -0.022820212 0.026805209 -0.054456957 -0.12430729 0.03532686 -0.20606129
-0.092082486 0.024007026 -0.031065254 -0.18323116 -0.072264776 -0.016197953 -0.046131764 0.0012569939
0.1112548 0.09081774 -0.0035629577 -0.032742903 0.024665838 0.014566271 0.017447539 0.033175386
-0.0370686 -0.015863176 -0.12076077 0.20106603 -0.060862347 -0.095124975 -0.03551661 -0.014798305
-0.12935098 -0.0719808 -0.09054535 -0.0075805746 0.04321441 0.012079498 0.060244706 0.0394071
-0.036665604 -0.012691859 0.022919083 -0.0588796 -0.050345935 -0.091474526 0.026506504 -0.07662627
0.09275751 0.04114724 -0.05236314 -0.18327491 -0.030253896 -0.07670676 0.0011805914 0.018305108
-0.04668633 -0.020253114 -0.020634908 0.028232248 -0.09850568 -0.09542505 0.09812768 0.20653965
-0.07260219 -0.09111585 0.08164562 0.04080831 0.00089674233 0.06532937 0.0230724 -0.05422461
0.053773314 -0.029064814 -0.012185194 -0.0828442 -0.028676217 -0.1494323 0.12097151 -0.0021782499
0.14430766 0.27746728 -0.023656832 -0.022950001 0.14571927 0.120104626 -0.080355994 -0.037309747
0.0045051607 0.051351108 0.07088788 -0.038358364 0.03672903 0.008357703 0.0052963984 0.0043741465
0.08494598 0.016830262 -0.07622349 -0.08792348 -0.026852602 -0.08676028 0.21241088 0.07130878
-0.06751835 0.07971788 0.012868503 -0.05880389 0.014876737 -0.009390938 0.053569034 -0.013973181
-0.0027366271 0.050350573 0.09105606 0.118664265 -0.014559497 -0.03870089 0.01140908 -0.12685809
00000000: 7bc5 9e3d fcc8 d33d 9866 c2bd aebf 983b
00000010: cc0a 9a3c e95d 8b3d 6843 173e ee88 d0bd
00000020: 3d45 a5bd e1a5 f23d 8c90 dbbc 15a1 84bc
00000030: 4162 923d 4fe5 3bbe 920b d3bc d7cb 32bd
00000040: eab9 ee3c 1eb2 9ebc 8ca7 89bd 7204 8dbb
00000050: 81bc 683d 31e4 b0bd a0ef f83d 4354 833d
00000060: 530b 2abe 4d5d 803d 31e7 ddbd 2647 3e3e
00000070: 512b 963c c60e 20bc c615 cc3b dcae b3bc
00000080: 7909 e9bc 4610 a03d c07b 81bd 1b17 c0bc
00000090: cadf e5bc a36c 7e3d d00d 173e 1e81 113d
000000a0: 00da 38be d1ed ac3c 4672 5e3d 6931 e53d
000000b0: f757 dcbd 17cd f13c e388 7dbd fe01 9e3d
000000c0: a763 33bc cc4a c53c 6b7e b2bd 9f55 c23c
000000d0: 7222 1ebc 4c5d 093e 6800 eebd c7a0 0d3d
000000e0: d9df 1e3d 13c3 7dbd d2fc 6cbc b950 e3bc
000000f0: 4feb ad3c 4728 923d 5f15 8abd 4951 b93d
00000100: af7d e93c f3e1 dbbc ade2 c8bd 7c5e 28bd
00000110: 8aaa 0abe 6a03 b03d fd0e 9fbd bc55 393c
00000120: 5349 cdbc 1e0b 5f3e 59c1 28bc 64cd d23d
00000130: 7cf8 293d f5e8 9d3d b164 96bd 5444 263d
00000140: 72cb f13b c6cc 3b3d 0ea8 f0bc 6916 38bd
00000150: 22c9 a63d 906d 90bd 8e22 d13d 74b4 aebd
00000160: f670 e13c 8b0f 41bd 6569 6cbc 3b3b d6bc
00000170: 015e 423d 8cec 7bbb cb7e f63d caf4 2dbe
00000180: bf0d 0a3d 3fb1 e73c 7c78 60bd dedc 133e
00000190: 9895 133d 860e 5dbb 9b88 1cbd a9bb 4cb9
000001a0: 1c21 84be e561 7a3b cfd8 993d 04a6 05be
000001b0: 8650 103d 347e 52bd c392 4e3d 0774 36bd
000001c0: c884 a33c a102 ec3c 1ac1 513d 13a5 61bd
000001d0: 4d96 f1bc fd85 693a 448b dfbc 8627 27bd
000001e0: 186d 823c 00b2 ce3b 3304 e53d 5d9f abbd
000001f0: 5d0d e1bd e0dc 0e3d 1528 0bbe d1ee cb3c
00000200: e784 4d3e c132 ab3d 928a aebc e7d5 09bd
00000210: 108c afbd fbf0 65bd fedc ce3c 6358 46be
00000220: e981 7fbd 121b 8dbd 74f1 babc 9996 db3c
00000230: 420e 5fbd d294 febd e6b2 103d bb01 53be
00000240: be95 bcbd 62aa c43c 8f7c febc f3a0 3bbe
00000250: 8eff 93bd 92b1 84bc a9f4 3cbd b7c1 a43a
00000260: 8ed9 e33d a7fe b93d 8380 69bb 6c1d 06bd
00000270: 0310 ca3c 5ea7 6e3c 24ee 8e3c eae2 073d
00000280: 3fd5 17bd 7ef3 81bc 6c51 f7bd 41e4 4d3e
00000290: cc4a 79bd e2d0 c2bd dd79 11bd 9774 72bc
000002a0: 9574 04be ab6a 93bd d76f b9bd 7866 f8bb
000002b0: 9801 313d 16e9 453c 27c3 763d 5769 213d
000002c0: ac2e 16bd 84f1 4fbc cdc0 bb3c bc2b 71bd
000002d0: 8a37 4ebd ff56 bbbd 2b24 d93c 3cee 9cbd
000002e0: a6f7 bd3d 028a 283d bb7a 56bd 6bac 3bbe
000002f0: 05d7 f7bc 6f18 9dbd 13be 9a3a 98f4 953c
00000300: 2a3a 3fbd dce9 a5bc 8a0a a9bc 5147 e73c
00000310: 59bd c9bd 356e c3bd 2af7 c83d 217f 533e
00000320: 75b0 94bd f29a babd d235 a73d 9d26 273d
00000330: 5c13 6b3a 68cb 853d 5402 bd3c a01a 5ebd
00000340: 6841 5c3d 5519 eebc 68a4 47bc 38aa a9bd
00000350: 63ea eabc c804 19be e9bf f73d f8c0 0ebb
00000360: 63c5 133e 3110 8e3e f9cb c1bc a401 bcbc
00000370: 6f37 153e 6af9 f53d af91 a4bd 1bd2 18bd
00000380: 07a0 933b 8a55 523d aa2d 913d a91d 1dbd
00000390: 2e71 163d bfee 083c 698d ad3b 0055 8f3b
000003a0: 28f8 ad3d 9edf 893c 101b 9cbd 3a11 b4bd
000003b0: fdf9 dbbc 60af b1bd 3d82 593e 560a 923d
000003c0: 1047 8abd 2143 a33d 6ad6 523c 59dc 70bd
000003d0: 8fbd 733c 73dc 19bc 346b 5b3d c5ef 64bc
000003e0: fc58 33bb 673c 4e3d 997b ba3d 4006 f33d
000003f0: f58a 6ebc d384 1ebd 26ed 3a3c 16e7 01be

bias f4 [100]
0.09418681 0.034307323 -0.12806362 0.039638035 -0.08674441 0.097117975 0.0064619724 0.1084364
0.18421575 0.1245472 -0.1141544 -0.13615678 0.260919 0.2852528 -0.072543055 -0.1305814
-0.08083806 -0.10748405 0.08370889 -0.11606297 -0.20683314 -0.06887538 -0.049193047 -0.22030681
-0.26168925 0.15879887 -0.1600192 -0.1641295 -0.24159835 -0.08456986 -0.11197479 0.103412956
-0.22602561 -0.08134919 -0.13144647 0.097095884 0.115846656 0.09354434 0.17056909 -0.13185711
-0.2711109 0.09776584 -0.01784397 0.22133067 0.017419524 0.3659801 -0.3328843 -0.24527368
-0.047206033 -0.05758749 0.0024544362 -0.017240312 0.041387957 0.27512473 0.027968995 -0.17083016
-0.13375211 0.37867546 0.039388113 -0.15010056 -0.08324566 0.052412666 -0.15115389 0.17800784
0.18573613 -0.22271574 -0.75318927 0.20266028 0.26882762 -0.019568669 -0.13021399 -0.31536362
0.038789615 -0.17484592 0.0022234072 0.005400469 -0.0388572 0.2002209 -0.13987562 -0.09165828
0.12809084 -0.28653774 0.2881163 0.10909163 0.20152904 -0.15055555 -0.20500885 0.11506546
-0.10867586 -0.16848396 -0.026804378 0.22287329 -0.23460817 0.032517985 -0.2315321 0.050560027
0.03682775 0.044555604 0.25984097 0.11928166
00000000: 04e5 c03d d685 0c3d 1c23 03be 7e5b 223d
00000010: 0ea7 b1bd cae5 c63d f4be d33b e713 de3d
00000020: 0ea3 3c3e 9a12 ff3d c8c9 e9bd af6c 0bbe
00000030: 2d97 853e a80c 923e 7491 94bd 21b7 05be
00000040: 6d8e a5bd 9920 dcbd 916f ab3d 6cb2 edbd
00000050: 11cc 53be 890e 8dbd a67e 49bd 1c98 61be
00000060: 22fc 85be 2c9c 223e 13dc 23be 9011 28be
00000070: 8f65 77be f632 adbd 0a53 e5bd 2cca d33d
00000080: 4273 67be 679a a6bd e799 06be 35da c63d
00000090: 0341 ed3d 2d94 bf3d aaa9 2e3e 8d05 07be
000000a0: 0ccf 8abe 7539 c83d 842d 92bc 82a4 623e
000000b0: 64b3 8e3c be61 bb3e d06f aabe 0629 7bbe
000000c0: 1d5b 41bd dce0 6bbd 9bda 203b 8e3b 8dbc
000000d0: 6b86 293d 26dd 8c3e 3c1f e53c 1aee 2ebe
000000e0: 50f6 08be c0e1 c13e 6e55 213d f6b3 19be
000000f0: b37c aabd aaae 563d 16c8 1abe b047 363e
00000100: 9d31 3e3e 980f 64be 03d1 40bf 2d86 4f3e
00000110: c6a3 893e 794e a0bc d156 05be 5777 a1be
00000120: dce1 1e3d cf0a 33be 95b6 113b 6bf6 b03b
00000130: ba28 1fbd b506 4d3e 8e3b 0fbe 56b7 bbbd
00000140: 3f2a 033e 13b5 92be fb83 933e 6f6b df3d
00000150: a15d 4e3e 3c2b 1abe d7ed 51be 71a7 eb3d
00000160: 7391 debd 0f87 2cbe db94 dbbc e538 643e
00000170: 203d 70be 9431 053d c016 6dbe 0818 4f3d
00000180: b2d8 163d f07f 363d e009 853e f149 f43d

weight f4 [100, 100]
0.09481274 -0.06934189 0.15121913 -0.060552746 -0.058523767 -0.038618572 -0.22406378 0.014436543
-0.14592066 -0.032359187 0.07469971 0.04686804 0.008027174 -0.07563325 -0.066018775 0.16476743
0.0067712967 0.052334115 -0.045040686 0.03831136 0.05230015 0.038718607 0.07878258 0.036873266
0.12372356 -0.054132577 -0.07118146 -0.028893646 0.036390435 0.14872031 -0.049511235 0.10363358
0.07324208 -0.03482384 -0.008875355 -0.123665005 0.17492355 -0.15901029 -0.08807363 0.006559027
0.0029119998 -0.067619026 0.21078359 -0.029543785 0.069917314 0.019291217 0.05569424 -0.035493616
-0.023154607 -0.004039875 0.03809147 0.13518642 -0.08918221 -0.010456015 -0.03794328 0.05015121
-0.08846016 -0.039992347 -0.0617514 -0.008390931 0.052921176 0.010996579 0.09098627 0.080462225
0.03743342 -0.024394277 0.12350983 -0.026553452 -0.16145249 0.074785486 -0.015482352 -0.099659026
-0.011366684 -0.10911054 -0.08062505 0.013849275 0.0012867 -0.22371262 -0.08245549 -0.021620315
0.17719947 0.07587111 -0.08497255 -0.061228003 0.17734726 0.02453707 -0.036686987 0.012267411
-0.028956266 0.09147177 0.014732475 0.002698066 0.06975686 0.038658287 -0.09812351 0.06570205
-0.078968965 0.13379371 -0.049205165 0.032419417 -0.0070596896 0.0049185907 -0.015575577 -0.014942671
-0.08221803 0.0780134 0.11726915 -0.06791224 0.037870314 -0.05846728 0.08944448 -0.037237972
-0.12315616 0.035364766 -0.07222964 0.009264347 0.077166 0.01776742 -0.08725377 0.092242055
-0.022538653 0.014244163 -0.0017980839 -0.024003472 -0.067966715 -0.0025142245 -0.0028369972 -0.08785644
-0.11799176 -0.084197335 0.06332772 -0.009818436 0.053021546 0.07311592 -0.06997068 0.10003228
0.012053848 0.0072414386 -0.033473607 -0.08838073 0.056622032 0.044030484 -0.03708383 -0.09248596
-0.074738696 0.09198896 -0.035438664 0.027622754 0.08348227 -0.111373864 -0.047302324 0.048186205
0.00086661556 0.064586766 -0.023120994 0.04531172 0.002617557 -0.042629093 0.07655093 -0.0277393
-0.049003128 0.06354544 -0.04375496 0.007138546 0.062213782 -0.040715113 -0.11775475 0.0032841295
-0.060047638 0.060485713 -0.10976839 -0.044240072 0.07899755 0.10261849 0.09246696 0.011760047
0.059110932 0.021082826 0.13456382 -0.08461917 0.024685971 -0.03523054 0.031200815 0.07434891
0.041395094 0.06821811 0.098309025 0.027740557 0.090415746 -0.01802758 -0.016154572 -0.025751032
-0.096066386 0.0846092 -0.028634453 0.045402855 0.10608433 -0.04952214 -0.10303776 -0.058660228
-0.047932878 -0.015659854 -0.04608717 0.011759132 -0.044569954 0.018196229 0.1267345 -0.072791204
-0.1302941 0.0819766 -0.0016979804 -0.017808113 0.0388149 0.054186653 0.07206933 -0.058323007
0.0912357 0.06883994 -0.016969718 0.0056834486 -0.12108662 -0.06367947 0.026974224 0.06419791
-0.005976695 0.09012552 0.06298659 -0.02482795 -0.08623267 -0.022718644 -0.09288375 0.03881329
0.030413236 -0.08985268 -0.012932653 0.02982188 -0.011433666 -0.033010002 -0.11709621 -0.03596254
0.065888576 -0.03131917 0.02866801 -0.098228686 0.09571591 0.09356524 0.03928449 0.09244122
0.00859119 -0.038600758 0.11172018 -0.06327023 -0.025472254 0.008973663 0.09131102 -0.08654182
00000000: 2f2d c23d 1f03 8ebd 30d9 1a3e 2806 78bd
00000010: 9eb6 6fbd 822e 1ebd fa70 65be 4087 6c3c
00000020: 3a6c 15be 118b 04bd 29fc 983d b4f8 3f3d
00000030: 6884 033c 9be5 9abd da34 87bd cbb8 283e
00000040: c1e1 dd3b 4c5c 563d 957c 38bd 5fec 1c3d
00000050: af38 563d 6797 1e3d c358 a13d 6c08 173d
00000060: c762 fd3d 1fba 5dbd 96c7 91bd 5eb2 ecbc
00000070: 230e 153d 234a 183e 4bcc 4abd d83d d43d
00000080: f2ff 953d 71a3 0ebd f069 11bc 1444 fdbd
00000090: 291f 333e 98d3 22be f35f b4bd 1bed d63b
000000a0: 40d7 3e3b d87b 8abd a7d7 573e cf05 f2bc
000000b0: cf30 8f3d 9d08 9e3c a51f 643d c161 11bd
000000c0: bbae bdbc ee60 84bb cd05 1c3d 4f6e 0a3e
000000d0: 2aa5 b6bd b54f 2bbc 6a6a 1bbd 5b6b 4d3d
000000e0: 9a2a b5bd 04cf 23bd 09ef 7cbd 1e7a 09bc
000000f0: e0c3 583d ff2a 343c 0257 ba3d 61c9 a43d
00000100: c953 193d 82d6 c7bc b9f2 fc3d a086 d9bc
00000110: cd53 25be 2229 993d b1a9 7dbc 081a ccbd
00000120: 543b 3abc 5975 dfbd bf1e a5bd 12e8 623c
00000130: 7da6 a83a ec14 65be 6dde a8bd 161d b1bc
00000140: c773 353e 5062 9b3d 1706 aebd 37ca 7abd
00000150: 859a 353e f701 c93c 1845 16bd 40fd 483c
00000160: b135 edbc 8d55 bb3d 7b60 713c 09d2 303b
00000170: afdc 8e3d 2758 1e3d fbf4 c8bd cc8e 863d
00000180: 7bba a1bd 3801 093e 5b8b 49bd 39ca 043d
00000190: f854 e7bb 212c a13b b430 7fbc 1bd2 74bc
000001a0: ed61 a8bd 7dc5 9f3d cf2a f03d 9315 8bbd
000001b0: e71d 1b3d 637b 6fbd ab2e b73d d886 18bd
000001c0: 4c39 fcbd a5da 103d 22ed 93bd 7dc9 173c
000001d0: 3509 9e3d fb8c 913c 1bb2 b2bd 67e9 bc3d
000001e0: fba2 b8bc 5a60 693c afad ebba eea2 c4bc
000001f0: 2232 8bbd b0c5 24bb eaec 39bb 14ee b3bd
00000200: aaa5 f1bd a76f acbd f7b1 813d 81dd 20bc
00000210: 1f2d 593d cdbd 953d ca4c 8fbd b9dd cc3d
00000220: 817d 453c 9749 ed3b 9f1b 09bd f500 b5bd
00000230: 81ec 673d 4f59 343d 37e5 17bd 4769 bdbd
00000240: 9a10 99bd b564 bc3d 2228 11bd 1d49 e23c
00000250: c1f8 aa3d fb17 e4bd 15c0 41bd e65e 453d
00000260: 962d 633a 1146 843d 3d68 bdbc c898 393d
00000270: 528b 2b3b d89b 2ebd bcc6 9c3d 873d e3bc
00000280: 81b7 48bd 1d24 823d 6738 33bd 77ea e93b
00000290: e1d3 7e3d e4c4 26bd 6729 f1bd 8d3a 573b
000002a0: 83f4 75bd debf 773d 40ce e0bd 1435 35bd
000002b0: 78c9 a13d a529 d23d 515f bd3d 36ad 403c
000002c0: 4e1e 723d e4b5 ac3c 19cb 093e d14c adbd
000002d0: 3c3a ca3c e64d 10bd da98 ff3c 3e44 983d
000002e0: e78d 293d f0b5 8b3d 3e56 c93d 2a40 e33c
000002f0: e42b b93d 93ae 93bc 9856 84bc d4f3 d2bc
00000300: 74be c4bd 9747 ad3d cd92 eabc 58f8 393d
00000310: be42 d93d bad7 4abd 7605 d3bd b545 70bd
00000320: 4455 44bd 1849 80bc e6c5 3cbd 60a9 403c
00000330: fc8e 36bd 4210 953c b0c6 013e 8e13 95bd
00000340: d16b 05be 59e3 a73d c58e deba 52e2 91bc
00000350: 5ffc 1e3d d3f2 5d3d 1699 933d 1be4 6ebd
00000360: c8d9 ba3d f4fb 8c3d 1404 8bbc 393c ba3b
00000370: 43fc f7bd 626a 82bd 0cf9 dc3c 327a 833d
00000380: 27d8 c3bb bb93 b83d 1dff 803d fc63 cbbc
00000390: c19a b0bd 731c babc d639 bebd affa 1e3d
000003a0: 2e25 f93c af04 b8bd 7ae3 53bc 044d f43c
000003b0: 4554 3bbc 7f35 07bd 23d0 efbd 754d 13bd
000003c0: 97f0 863d 8848 00bd 2dd9 ea3c 1f2c c9bd
000003d0: b406 c43d 229f bf3d c6e8 203d d351 bd3d
000003e0: 10c2 0c3c d41b 1ebd 8dcd e43d d393 81bd
000003f0: 30ab d0bc 4506 133c 4601 bb3d d63c b1bd

bias f4 [100]
-0.4917497 7.665275e-05 0.077081755 0.4808217 0.037628073 0.13932675 0.10732805 -0.25350827
0.5933486 0.01907981 -0.16068381 0.23670055 0.14490607 0.12390901 -0.013609202 -0.10425929
-0.20599416 -0.28247258 0.023789167 0.3547127 0.13794361 0.030167926 0.16780862 -0.07972632
0.10752657 0.20047261 0.28554624 -0.063530214 -0.97712964 -0.053633902 -0.046721626 0.094470896
0.03417505 -0.2978845 -0.24715506 0.2352572 -0.2003284 -0.15348767 0.07769079 -0.18230636
-0.30651307 -0.0966698 0.080553204 0.16095762 0.0125408 -0.17856298 0.06829989 0.18034463
0.10351297 0.16838899 0.06889695 0.03105372 0.43289703 0.059130356 0.048691217 0.03495304
-0.82857245 -0.094634704 -0.16574211 -0.13693002 -0.26092637 0.4653455 -0.12584287 -0.2756086
-0.008796455 -0.030540418 0.112186395 0.3933676 -0.33941257 0.19149962 0.29048476 -0.13941118
-0.1295031 -0.3436109 -0.1958876 0.27803814 -0.20008431 0.19577119 0.26214173 0.24405347
-0.3691061 0.18478471 -0.051752392 -0.14870249 0.19746314 0.04101912 0.3097778 0.040365912
0.18848112 -0.19881712 -0.12959777 0.0141256405 0.299673 0.008269734 0.05563719 0.07887473
0.23048922 -0.39149693 0.14441864 -0.34278628
00000000: 9ec6 fbbe a2c0 a038 0add 9d3d 432e f63e
00000010: e51f 1a3d acab 0e3e cfce db3d d6cb 81be
00000020: b2e5 173f 434d 9c3c 4c8a 24be a161 723e
00000030: 4262 143e 02c4 fd3d 21f9 5ebc e585 d5bd
00000040: 22f0 52be 3fa0 90be 80e1 c23c e79c b53e
00000050: 1741 0d3e ba22 f73c 06d6 2b3e 8e47 a3bd
00000060: e436 dc3d b148 4d3e 1e33 923e 211c 82bd
00000070: 2b25 7abf 39af 5bbd 2d5f 3fbd f579 c13d
00000080: 23fb 0b3d 5184 98be 3716 7dbe 43e7 703e
00000090: e322 4dbe df2b 1dbe 591c 9f3d 85ae 3abe
000000a0: 48ef 9cbe d1fa c5bd 14f9 a43d 13d2 243e
000000b0: ed77 4d3c 37d9 36be d0e0 8b3d 43ac 383e
000000c0: 9cfe d33d 2a6e 2c3e d819 8d3d 5f64 fe3c
000000d0: aea4 dd3e ac32 723d 7170 473d eb2a 0f3d
000000e0: 531d 54bf d7cf c1bd 4db8 29be 6237 0cbe
000000f0: 2498 85be c441 ee3e f4dc 00be 921c 8dbe
00000100: 021f 10bc e62f fabc fbc1 e53d 7a67 c93e
00000110: 7cc7 adbe 7a18 443e 6bba 943e cec1 0ebe
00000120: 769c 04be c5ed afbe c296 48be 045b 8e3e
00000130: e7e2 4cbe 3e78 483e 7137 863e 27e9 793e
00000140: 7afb bcbe 3438 3d3e 51fa 53bd 7745 18be
00000150: c733 4a3e aa03 283d 329b 9e3e ba56 253d
00000160: 3201 413e b796 4bbe 47b5 04be 3b6f 673c
00000170: bd6e 993e c77d 073c d2e3 633d 1389 a13d
00000180: 5e05 6c3e 4972 c8be 7be2 133e af81 afbe

weight f4 [2, 100]
0.022815026 -0.031543855 -0.010301714 0.098299615 -0.0014836708 -0.077336766 -0.03594028 -0.01743052
-0.82221365 -0.030226585 0.03640938 0.100033104 0.070571624 -0.03638369 0.018076891 0.009858078
-0.022804817 -0.1872561 -0.0018571987 -0.12689433 0.042295616 -0.14341022 -0.041528627 -0.019913644
0.02321264 -0.002381788 0.00030082455 0.024428915 0.3188866 0.032576144 0.031788573 0.0043793945
0.07247191 0.056450535 0.048893303 0.0089804195 -0.21900636 0.025064195 -0.08659868 -0.034908194
0.10197304 -0.18792343 -0.02295258 -0.042357966 0.05637515 0.057231925 -0.024282198 0.015612948
-0.14710769 0.019612374 0.05026268 0.046891678 0.18652496 0.086554736 -0.0026517354 -0.033097446
-0.63872445 0.03165718 0.04335221 0.068426155 0.052562516 0.010022367 -0.0072123935 0.070007935
0.0130221965 0.027738081 -0.032725442 0.24529497 -0.2033111 -0.04675973 -0.037565667 0.034485012
0.035475995 0.03964105 -0.097758316 0.021382034 -0.13311224 0.025298834 -0.12215683 -0.046783134
-0.28053144 -0.02113559 0.004648253 0.06014413 0.07752971 -0.014772458 0.02780352 0.017481325
0.029364325 -0.09778879 0.02016597 0.0070958585 -0.23041023 -0.005457934 -0.14440559 0.054729037
-0.040520053 -0.0809179 -0.139899 -0.12682799 -0.09153952 0.02770817 0.00019079448 0.11941875
-0.08959915 0.058536522 -0.031538077 -0.11370313 -0.06252355 -0.0074547185 -0.02356343 0.13062942
0.12542862 0.043095365 -0.0030019153 -0.044724446 -0.059798233 -0.18337187 -0.00037997836 0.32153147
-0.061730772 -0.14035325 0.045207303 -0.081751324 0.03827142 0.04078914 0.043833695 -0.042223267
-0.64288527 0.00647729 -0.03721369 0.1267672 0.07961837 -0.0726994 -0.11211542 0.05849654
-0.09613681 -0.12778983 -0.037921112 -0.02489169 0.064950824 -0.199653 0.041315224 0.078254715
0.0431124 -0.08079502 0.069576405 -0.1139433 0.11601338 0.1522028 -0.0009174296 -0.011122036
0.2154853 0.080262884 -0.05264827 -0.08585892 -0.1423559 0.039320756 -0.13935226 -0.09941352
-0.05014809 0.12458753 -0.06289626 -0.093834296 0.026071468 0.02401899 0.09016778 0.09076835
-0.20479323 0.1019214 0.056687485 -0.083578214 -0.07906179 -0.1283814 0.0425811 0.08571623
-0.16042905 0.019352254 0.029922863 0.056839425 0.31122577 0.07787086 -0.12947018 0.04766055
0.04465525 0.11979017 0.09924078 0.02742658 0.043918103 -0.13358821 -0.13745128 -0.06316765
0.44423866 0.14393708 0.12439421 -0.04712263 0.03535869 -0.12431614 0.30229256 -0.100543775
00000000: 94e6 ba3c 2134 01bd 85c8 28bc 4f51 c93d
00000010: bb77 c2ba bd62 9ebd 1d36 13bd 73ca 8ebc
00000020: 987c 52bf be9d f7bc 0122 153d 28de cc3d
00000030: db87 903d 1007 15bd fd15 943c c783 213c
00000040: 2bd1 babc 10c0 3fbe 3f6d f3ba 96f0 01be
00000050: 2b3e 2d3d 21da 12be ec19 2abd f021 a3bc
00000060: 6f28 be3c c617 1cbb fdb7 9d39 261f c83c
00000070: 1b45 a33e 906e 053d bc34 023d 0681 8f3b
00000080: 276c 943d ad38 673d 5844 483d 9c22 133c
00000090: 3443 60be 6d53 cd3c a65a b1bd e5fb 0ebd
000000a0: 3ed7 d03d 006f 40be 0d07 bcbc 8c7f 2dbd
000000b0: a1e9 663d 066c 6a3d 76eb c6bc 73cd 7f3c
000000c0: 66a3 16be 21aa a03c 3de0 4d3d 7d11 403d
000000d0: 6600 3f3e 9c43 b13d bdc8 2dbb 3091 07bd
000000e0: 7283 23bf f6aa 013d 1692 313d 0323 8c3d
000000f0: cb4b 573d db34 243c f155 ecbb 5260 8f3d
00000100: 0d5b 553c f93a e33c 1d0b 06bd 9b2e 7b3e
00000110: c930 50be 2187 3fbd 75de 19bd 2840 0d3d
00000120: 474f 113d a75e 223d 8335 c8bd 6029 af3c
00000130: 934e 08be 803f cf3c 5c2d fabd ac9f 3fbd
00000140: d1a1 8fbe 8b24 adbc 5f50 983b b159 763d
00000150: e6c7 9e3d 2e08 72bc 35c4 e33c ff34 8f3c
00000160: 748d f03c 7d45 c8bd 1b33 a53c 6084 e83b
00000170: a9f0 6bbe 78d8 b2bb 0fdf 13be 8e2b 603d
00000180: 5bf8 25bd 49b8 a5bd af41 0fbe 32df 01be
00000190: 1279 bbbd 3efc e23c 0110 4839 d191 f43d
000001a0: c27f b7bd fec3 6f3d 122e 01bd 30dd e8bd
000001b0: 590c 80bd b646 f4bb 1808 c1bc b8c3 053e
000001c0: 5c70 003e c484 303d c8bb 44bb fb30 37bd
000001d0: feee 74bd d6c5 3bbe d537 c7b9 c69f a43e
000001e0: 68d9 7cbd c3b8 0fbe 4b2b 393d 3d6d a7bd
000001f0: 7ec2 1c3d 8312 273d f68a 333d 4ef2 2cbd
00000200: 2194 24bf 723f d43b 626d 18bd 43cf 013e
00000210: f50e a33d 6ce3 94bd c59c e5bd 119a 6f3d
00000220: 60e3 c4bd 56db 02be 2b53 1bbd a8e9 cbbc
00000230: f004 853d d671 4cbe 273a 293d 0244 a03d
00000240: a196 303d dc77 a5bd 137e 8e3d 1b5b e9bd
00000250: 6c98 ed3d 0ddb 1b3e a97f 70ba 3339 36bc
00000260: 2ea8 5c3e de60 a43d b6a5 57bd cdd6 afbd
00000270: bfc5 11be cd0e 213d 5cb2 0ebe 5199 cbbd
00000280: 1568 4dbd bf27 ff3d c1cf 80bd 322c c0bd
00000290: d593 d53c 79c3 c43c e3a9 b83d c2e4 b93d
000002a0: 51b5 51be 2bbc d03d 2331 683d 0e2b abbd
000002b0: 26eb a1bd 6a76 03be 8569 2e3d fe8b af3d
000002c0: 8347 24be 9e88 9e3c cb20 f53c 75d0 683d
000002d0: fc58 9f3e c27a 9f3d d593 04be b537 433d
000002e0: 6ce8 363d 8c54 f53d c03e cb3d b5ad e03c
000002f0: 78e3 333d 59cb 08be 07c0 0cbe 0a5e 81bd
00000300: 4073 e33e 3e64 133e 64c2 fe3d a903 41bd
00000310: 46d4 103d 7699 febd 17c6 9a3e e5e9 cdbd

bias f4 [2]
0.15730537 1.375957
00000000: a914 213e 5c1f b03f
